model/model.pth (torch, 17216 bytes, 4 tensors)

linear1.weight f4 [256, 11]
0	0xbe69b53e	-0.22823045
1	0xbe3fe2f9	-0.18738927
2	0xbd87fdf4	-0.066402346
3	0x3d8c6040	0.06854296
4	0xbe05d105	-0.13068016
5	0x3eb1e218	0.34742808
6	0xbf035e9a	-0.51316226
7	0xbf32780f	-0.69714445
8	0xbf256c9c	-0.6461885
9	0x3eed74bf	0.46378133
10	0xbebb501f	-0.36584565
11	0x3f173087	0.5905842
12	0xbecc4734	-0.39898074
13	0x3d9f3c08	0.07775122
14	0xbf0736c0	-0.52817917
15	0xbd290244	-0.041261926
16	0xbd6c4b14	-0.057688788
17	0x3e4ea130	0.20178676
18	0x3ebb28dd	0.36554614
19	0xbe017aa3	-0.12644438
20	0xbe1a7304	-0.15082937
21	0xbea31a75	-0.31856123
22	0xbcdbb2f2	-0.026818726
23	0x3f09197e	0.53554523
24	0xbece59b7	-0.40302822
25	0x3deaed23	0.114710115
26	0xbe1628b9	-0.14663972
27	0xbe490bdf	-0.19633435
28	0xbdccad13	-0.09993949
29	0x3e9de6cf	0.30840155
30	0x3e3e9731	0.18612362
31	0x3dbbca77	0.091694765
32	0xbd5b90fc	-0.053605065
33	0xbf0b06d9	-0.54307324
34	0xbdcfd420	-0.101478815
35	0x3f279444	0.6546061
36	0xbe9664ec	-0.29373872
37	0x3cc35d1a	0.023848105
38	0xbe1ec68c	-0.15505427
39	0xbd8a98ee	-0.0676745
40	0x3e79528b	0.24347894
41	0x3e465a91	0.19370486
42	0x3c16631e	0.009178905
43	0x3e777b09	0.24168028
44	0xbecf6800	-0.40509033
45	0xbdfda319	-0.12384624
46	0xbd51f7e5	-0.0512618
47	0x3eaf5b14	0.34249175
48	0x3eecd874	0.4625889
49	0xbece0c9f	-0.40244004
50	0xbe035e4b	-0.12828939
51	0x3edb56e0	0.42839718
52	0x3e4fe8ac	0.20303601
53	0xbeb698a0	-0.3566332
54	0xbea1ce5a	-0.31602746
55	0xbd3e7c1c	-0.04650508
56	0xbe2842e4	-0.16431767
57	0xbe5cb498	-0.21553266
58	0x3defd541	0.11710597
59	0xbe83ec28	-0.2576611
60	0xbe764d42	-0.24052909
61	0xbe4c0d7c	-0.19927019
62	0x3c904c76	0.017614584
63	0x3d5f1739	0.054465506
64	0xbd36c4b4	-0.044621184
65	0xbeada36c	-0.33913743
66	0xbdcd2f12	-0.100187436
67	0xbd483157	-0.04887518
68	0xbd972571	-0.07380188
69	0x3eb08e5e	0.34483618
70	0x3eb45640	0.35222054
71	0xbe48140b	-0.19538896
72	0xbeccf97c	-0.4003409
73	0xbf07df75	-0.53075343
74	0xbf319e6f	-0.69382375
75	0x3e4ea30f	0.2017939
76	0x3ea6f2cf	0.32607123
77	0xbe930d7e	-0.2872123
78	0xbc266020	-0.010154754
79	0xbd9846ae	-0.07435356
80	0x3ee61ee0	0.4494543
81	0x3eece503	0.46268472
82	0xbeb1d2a8	-0.3473103
83	0xbe3dead4	-0.18546611
84	0xbf10bf66	-0.5654205
85	0xbefe714a	-0.49695808
86	0x3eaa1c02	0.33224493
87	0x3e56ed83	0.20989041
88	0x3e96d8fb	0.29462418
89	0x3e6c7c23	0.2309423
90	0x3e08341a	0.13301125
91	0xbebbbc9f	-0.36667344
92	0x3ed72ea0	0.4202776
93	0x3bf48c21	0.0074629937
94	0xbdb97e2a	-0.09057267
95	0x3f22796e	0.63466537
96	0xbe28e526	-0.16493663
97	0x3e04b15e	0.12958285
98	0x3e8ab100	0.27088165
99	0x3e0b7c5e	0.13621661
100	0x3c7628f1	0.01502441
101	0x3d1f0f9b	0.038833242
102	0xbf062eb4	-0.52415013
103	0x3de1617d	0.110049225
104	0x3e9f858d	0.3115658
105	0xbf05bc26	-0.52240217
106	0xbeef46de	-0.46733755
107	0xbf39d3fb	-0.7258908
108	0x3eb2c6b6	0.3491723
109	0xbee239c6	-0.44184703
110	0x3ee4d965	0.4469711
111	0xbf19eaf2	-0.60124123
112	0x3e9568a0	0.29181385
113	0x3ddfd882	0.109299675
114	0xbc1ca701	-0.009561301
115	0xbe302d49	-0.17204775
116	0x3d1b4f48	0.037917405
117	0xbe91df8e	-0.2849087
118	0xbe5b97cf	-0.21444629
119	0xbcad6c06	-0.021169674
120	0xbd3d208a	-0.04617361
121	0x3f05f9eb	0.5233447
122	0xbe530def	-0.20610784
123	0xbe2508f1	-0.16116692
124	0x3ec12f07	0.37731192
125	0x3e437a2e	0.19089577
126	0x3e09f3d7	0.13471924
127	0xbe9af4af	-0.30264804
128	0xbf0373cb	-0.5134856
129	0xbe7f3a74	-0.24924642
130	0xbdea0c73	-0.11428156
131	0x3e8ddfde	0.2770986
132	0x3dc39b6d	0.095511295
133	0x3f205994	0.62636685
134	0xbe99d098	-0.30041957
135	0x3d17331a	0.03691397
136	0x3ebf81e2	0.3740378
137	0xbe15e092	-0.14636448
138	0x3eebf4c8	0.4608519
139	0xbeea3295	-0.45741716
140	0xbd280af9	-0.04102609
141	0xbe20cf36	-0.15704045
142	0x3dd231e2	0.10263421
143	0x3d0ab079	0.033859704
144	0xbe738657	-0.23781715
145	0xbe14999e	-0.14511725
146	0xbe8b64db	-0.27225384
147	0xbe6952ec	-0.22785538
148	0xbe61ce49	-0.22051348
149	0x3ee7df59	0.45287588
150	0xbec8d2b8	-0.39223266
151	0x3e191aeb	0.14951675
152	0xbe4f8fed	-0.20269747
153	0x3e656d44	0.22404963
154	0xbe4870c1	-0.19574262
155	0xbd2e31fa	-0.04252813
156	0xbe26a26a	-0.16272894
157	0xbe6a7c4a	-0.22898975
158	0xbe6b7581	-0.22994043
159	0xbcc5d840	-0.024150968
160	0xbe7487c9	-0.23879923
161	0x3eb83d40	0.3598423
162	0x3ead42c1	0.33839992
163	0x3e1f877a	0.15579024
164	0x3eb62169	0.35572365
165	0x3e17b8c8	0.14816582
166	0xbd6f1614	-0.058370665
167	0xbf10ad7c	-0.56514716
168	0xbe899c0d	-0.2687687
169	0xbe2a922f	-0.16657327
170	0xbe3fcbcd	-0.18730088
171	0xbe29bdf2	-0.16576365
172	0xbd5310d8	-0.051529735
173	0x3cb45f1c	0.022018008
174	0xbcd1798b	-0.025570652
175	0x3d9fb51b	0.07798215
176	0xbd5c6900	-0.053811073
177	0xbdc828db	-0.097734176
178	0xbe2bf5c6	-0.16792974
179	0x3ee42b19	0.4456413
180	0xbe1c3810	-0.15255761
181	0xbe95a5cf	-0.29228064
182	0xbd96809b	-0.07348748
183	0x3ec2af56	0.38024396
184	0xbea788b4	-0.32721484
185	0x3b47b452	0.003047247
186	0xbe1bb555	-0.15205891
187	0x3e81ed3e	0.25376314
188	0x3eb4a454	0.35281622
189	0xbf286f14	-0.6579449
190	0x3d6b35f9	0.05742452
191	0xbe6a9de3	-0.22911792
192	0x3d35caee	0.044382982
193	0x3dc32a92	0.09529604
194	0x3e37dd3f	0.17955492
195	0xbd4f1aa9	-0.050562534
196	0xbdfd49e8	-0.12367612
197	0x3e2c9a9a	0.16855851
198	0x3e88daa5	0.26729313
199	0x3d61aca9	0.055096302
200	0x3d80d3c3	0.0629039
201	0x3d96501d	0.07339499
202	0xbd6afba3	-0.057368886
203	0x3edc4ab7	0.43025753
204	0x3df73e4a	0.120724276
205	0x3e8d485e	0.27594274
206	0x3e862659	0.26201132
207	0xbe921832	-0.28534085
208	0x3d83bb69	0.0643223
209	0x3e9e8d54	0.309672
210	0xbd60ef38	-0.054915637
211	0xbedd7e38	-0.4326036
212	0xbe6fbfec	-0.23413056
213	0x3d895c43	0.06707051
214	0x3df8039c	0.121100634
215	0x3e9fdd95	0.3122374
216	0x3e92a7c3	0.28643617
217	0xbc1f6d1f	-0.009730606
218	0x3d8a489c	0.067521304
219	0xbe8e16ae	-0.27751678
220	0x3f0eb246	0.55740774
221	0xbca3e300	-0.020005703
222	0xbe20d1c3	-0.15705018
223	0xbedc2db6	-0.43003625
224	0xbe3206d8	-0.17385423
225	0x3e164bf0	0.14677405
226	0x3eb156c2	0.34636503
227	0x3ef99cd0	0.4875245
228	0x3e6cbb27	0.23118268
229	0xbda1b2af	-0.07895409
230	0xbe504e8d	-0.20342465
231	0xbe8011d2	-0.25013596
232	0xbdaf5484	-0.08561042
233	0x3e70a7b3	0.23501472
234	0x3dfcca1f	0.12343239
235	0x3d05048f	0.03247505
236	0xbe6b4443	-0.22975259
237	0xbe0b9a99	-0.13633193
238	0xbe56498a	-0.2092649
239	0x3d9084a9	0.07056553
240	0xbda0869f	-0.07838177
241	0xbe4ad72c	-0.19808644
242	0x3dbcabcb	0.092124544
243	0x3e896f91	0.2684293
244	0xbe9f4da8	-0.31113935
245	0x3e6d8666	0.231958
246	0xbf036557	-0.5132651
247	0xbe86bc79	-0.26315668
248	0x3f02b6e3	0.51060313
249	0xbf0a8fbe	-0.54125583
250	0xbbab6c95	-0.00523145
251	0xbea303e5	-0.3183891
252	0x3ea1c2b5	0.31593862
253	0x3e3da15f	0.1851859
254	0x3e04cbf2	0.12968424
255	0x3cb1203b	0.021621814

linear1.bias f4 [256]
0	0xbd008142	-0.03137327
1	0x3d83d86c	0.064377636
2	0x3e5ff756	0.21871695
3	0x3e2d9d90	0.16954637
4	0xbd2d01a8	-0.042237908
5	0xbe8040a3	-0.25049314
6	0xbd0e2974	-0.0347075
7	0xbd64126f	-0.055681642
8	0xbeaa12b3	-0.3321739
9	0x3d6569e9	0.056009207
10	0x3eeb004c	0.45898664
11	0x3d85d6be	0.065350994
12	0x3e07720e	0.13227102
13	0xbe34771f	-0.17623566
14	0xbdd8fd28	-0.10595161
15	0x3e17d3d5	0.14826901
16	0xbe14ed81	-0.14543726
17	0x3d16c6b1	0.03681058
18	0xbe4e7c12	-0.20164517
19	0xbe197a15	-0.14987977
20	0xbd9a1e98	-0.075253665
21	0xbee2b1e9	-0.4427636
22	0x3c4f34c7	0.01264686
23	0xbe35ea9d	-0.17765279
24	0x3e33494c	0.1750843
25	0x3e5e7ba8	0.21726859
26	0x3f06cbe9	0.5265489
27	0xbdccdb94	-0.10002819
28	0xbe0be1d0	-0.1366036
29	0x3ee0a50c	0.4387592
30	0xbe522fa6	-0.20525989
31	0x3d3d4fcd	0.046218682
32	0xbe05aff1	-0.13055398
33	0x3e546778	0.20742595
34	0x3e52f782	0.20602229
35	0xbb2d0071	-0.0026397968
36	0xbe6fb515	-0.23408921
37	0x3e81d1c7	0.2535536
38	0xbe72433c	-0.2365846
39	0xbe648ac9	-0.22318567
40	0xbdef015f	-0.116701834
41	0xbebc71be	-0.36805528
42	0x3f0a0c2c	0.5392482
43	0xbdb2bb80	-0.08727169
44	0xbd08c3c8	-0.033389837
45	0xbe4d9869	-0.20077671
46	0xbe8055d8	-0.25065494
47	0xbe91fc38	-0.2851274
48	0xbd0aefb9	-0.033920024
49	0xbe28445b	-0.16432326
50	0x3c19d792	0.009389775
51	0xbe61204a	-0.21984974
52	0xbcc80e9e	-0.024421033
53	0xbda590f0	-0.08084285
54	0xbe8375b3	-0.25675735
55	0x3b5a8ea2	0.0033349176
56	0x3ea30272	0.31837803
57	0xbe24f040	-0.16107273
58	0xbe930efa	-0.28722364
59	0x3d49e71a	0.04929266
60	0x3d987b3c	0.0744538
61	0xbd8bfd62	-0.06835438
62	0xbe54cde0	-0.2078166
63	0xbe020180	-0.12695885
64	0xbe28a04c	-0.16467398
65	0xbea11300	-0.31459808
66	0xbe46c4c6	-0.19411
67	0xbd0be502	-0.034153946
68	0xbe09a60f	-0.13442253
69	0x3da0f562	0.07859303
70	0xbe43c7e7	-0.19119225
71	0xbe9d747f	-0.30752942
72	0xbd870186	-0.065920874
73	0xbdb40790	-0.08790505
74	0xbe32f21c	-0.1747517
75	0xbdcb8858	-0.09938115
76	0xbe909112	-0.2823568
77	0xbe9ca757	-0.3059642
78	0xbdc421ac	-0.09576735
79	0x3cf85daa	0.0303181
80	0xbcfe6d43	-0.03105796
81	0xbe94e634	-0.2908188
82	0x3d21d3e2	0.039508708
83	0xbea837d5	-0.32855096
84	0xbc8c45d6	-0.017123144
85	0xbe010aaf	-0.12601732
86	0xbe7a94b1	-0.24470784
87	0xbdee3464	-0.116310865
88	0xbdce1657	-0.10062855
89	0xbe00ffb1	-0.12597539
90	0xbe115a7b	-0.14194672
91	0xbda2318d	-0.07919607
92	0x3e3447ee	0.17605564
93	0xbeca10e9	-0.39466026
94	0x3e4f6304	0.20252615
95	0x3e558c0a	0.20854202
96	0xbdd5cdec	-0.10439667
97	0xbdb039f5	-0.086048044
98	0x3df8f921	0.121568926
99	0xbe84e828	-0.2595837
100	0xbd1877e4	-0.03722371
101	0x3e9f50c9	0.31116322
102	0xbdefe6e1	-0.117139585
103	0xbdab0a6c	-0.08351597
104	0xbe8b8f99	-0.27257994
105	0x3effb7c6	0.49944896
106	0xbcb69f84	-0.02229286
107	0xbe0f94c0	-0.14021587
108	0xbe870cf7	-0.2637708
109	0x3ee4c3cf	0.4468064
110	0xbe3b123b	-0.18268673
111	0xbea19fa1	-0.315671
112	0xbea4c21e	-0.3217935
113	0x3d5edec4	0.054411665
114	0xbe1707f3	-0.14749126
115	0xbdcaa540	-0.098948
116	0x3e5180f0	0.20459342
117	0xbcba6d97	-0.022757335
118	0xbe812911	-0.25226644
119	0x3cd13771	0.025539132
120	0xbe4a19b8	-0.19736373
121	0xbe5e1c53	-0.21690492
122	0x3df1dcb2	0.118096724
123	0x3ea60106	0.32422656
124	0x3d29a2d3	0.041415047
125	0x3dfd0ea4	0.12356308
126	0xbe2ea655	-0.17055638
127	0xbe84a5b4	-0.2590767
128	0xbea421c4	-0.3205701
129	0xbe8b4074	-0.2719761
130	0xbd25a59e	-0.040441148
131	0x3ddb8b10	0.107198834
132	0xbe922ee4	-0.285514
133	0xbe5c1757	-0.21493278
134	0x3dfd0783	0.12354948
135	0xbd5ae729	-0.053443108
136	0xbdca18f4	-0.09868041
137	0x3e56af7e	0.20965382
138	0xbd6175b8	-0.055043906
139	0xbddc7d77	-0.10766118
140	0xbe20942d	-0.15681525
141	0x3d37216d	0.04470961
142	0x3e143ba8	0.14475882
143	0xbe843bc1	-0.2582684
144	0x3e8fb1b5	0.28065267
145	0xbed1ba1e	-0.4096231
146	0xbdb1c876	-0.08680813
147	0xbe176a9a	-0.14786759
148	0xbe71af77	-0.23602091
149	0x3db441fa	0.088016465
150	0x3dd756e6	0.105146214
151	0x3dc5798d	0.096423246
152	0x3cab9bbe	0.020948287
153	0x3cc5f977	0.024166806
154	0xbe7f90ef	-0.24957632
155	0xbde44705	-0.111463584
156	0x39706c1d	0.00022928459
157	0xbe48bccd	-0.19603272
158	0x3e828b12	0.25496727
159	0x3efce8b0	0.49396276
160	0xbcbea4d7	-0.023271961
161	0xbd50f3dd	-0.051013816
162	0xbdeda1f9	-0.116031595
163	0x3bcd8419	0.006271851
164	0xbeab50fc	-0.33460224
165	0x3d692ba1	0.056926373
166	0xbd9a8ffd	-0.07546995
167	0xbe10c8d8	-0.14139116
168	0xbdf7f3c7	-0.12107044
169	0x3c90122f	0.017586796
170	0xbe92ed6a	-0.28696758
171	0x3d80dfd3	0.06292691
172	0xbe831f76	-0.2560994
173	0xbc2b15c0	-0.010442197
174	0xbe506d15	-0.20354111
175	0xbc92cae9	-0.01791902
176	0xbe6f3931	-0.2336166
177	0x3da452a6	0.080235764
178	0xbcb146c3	-0.021640187
179	0xbe792693	-0.24331121
180	0x3d801bd6	0.06255309
181	0x3e6fa431	0.23402478
182	0xbdf6115c	-0.1201503
183	0xbe6df030	-0.23236156
184	0xbe05c85d	-0.13064714
185	0xbdab7deb	-0.08373626
186	0x3f67d106	0.9055332
187	0xbe356005	-0.1771241
188	0xbd480245	-0.04883029
189	0x3dbd3dec	0.09240326
190	0xbe68301d	-0.22674604
191	0x3e9c933b	0.30581078
192	0x3d188b52	0.03724224
193	0x3e274e06	0.16338357
194	0xbd0a1470	-0.033710897
195	0x3ea7c88d	0.32770196
196	0xbd323c2c	-0.043514416
197	0x3eb7ee09	0.35923794
198	0x3ed0ed81	0.408062
199	0xbed2ba8f	-0.41157958
200	0xbe7282d6	-0.23682722
201	0x3c349897	0.011022708
202	0x3db345cf	0.08753549
203	0xbe0d842a	-0.13819948
204	0xbdc550ae	-0.09634529
205	0x3d9e78bb	0.07737871
206	0xbe1737d0	-0.14767385
207	0xbdb755dd	-0.08951924
208	0xbe943637	-0.28947613
209	0x3f20bd78	0.62789106
210	0x3e893f45	0.26806083
211	0x3e5c6b70	0.21525359
212	0xbd2c9cf6	-0.042141877
213	0xbe9f17a2	-0.31072718
214	0xbd22a3ac	-0.03970687
215	0xbe2dbb9f	-0.16966103
216	0x3e076456	0.13221869
217	0xbe57e529	-0.21083511
218	0xbec600e9	-0.3867257
219	0xbe16c349	-0.14722933
220	0xbde24f6f	-0.11050307
221	0xbe152a7d	-0.14566989
222	0xbcb8828f	-0.022523193
223	0x3d988ffc	0.07449338
224	0x3cbc371f	0.022975503
225	0xbe722deb	-0.23650329
226	0x3d4116cf	0.047140893
227	0x3d94d19b	0.072665416
228	0x3dfa571d	0.12223647
229	0x3cb00d2b	0.021490654
230	0x3ce35df1	0.027754756
231	0xbe4861ad	-0.1956851
232	0x3e67d1b2	0.22638586
233	0xbe2cadb8	-0.16863143
234	0xbe2074b3	-0.15669517
235	0x3e22855c	0.15871185
236	0xbd659f72	-0.056060262
237	0x3d89311c	0.0669882
238	0x3e46a923	0.19400458
239	0x3d743054	0.0596164
240	0xbe90ec42	-0.2830525
241	0x3e2a3408	0.16621411
242	0x3d20cfcc	0.03926067
243	0xbdefdcac	-0.11712012
244	0x3c8a289b	0.016865065
245	0xbdd9b103	-0.106294654
246	0x3edc8b33	0.4307495
247	0xbd443ec6	-0.047911428
248	0xbe8016cb	-0.2501739
249	0xbe231fb4	-0.15930063
250	0xbdf15204	-0.11783221
251	0xbe9287c1	-0.28619197
252	0x3e7b84a9	0.24562325
253	0xbe4c16bf	-0.19930552
254	0xbdd4dcea	-0.103936985
255	0x3aa658cf	0.0012691262

linear2.weight f4 [3, 256]
0	0x3ee2bd91	0.44285253
1	0xbedbad83	-0.42905816
2	0x3d390afc	0.04517649
3	0x3d9547da	0.07289095
4	0x3ed9bb8b	0.42525896
5	0x3b051212	0.002030496
6	0xbeeccc09	-0.46249416
7	0xbe8b74d5	-0.27237573
8	0xbee2d2d7	-0.44301483
9	0x3ed3b012	0.41345268
10	0x3ddc7b7e	0.10765742
11	0xbef42174	-0.47681773
12	0x3e841859	0.25799826
13	0x3e589f7c	0.21154588
14	0xbdddda5c	-0.10832664
15	0xbc72ec9a	-0.014826918
16	0x3ee2689b	0.44220433
17	0x3db989da	0.09059496
18	0xbe5edee4	-0.21764714
19	0xbd331388	-0.0437198
20	0xbf28f028	-0.6599145
21	0x3cf09f63	0.029372877
22	0x3e3b6b4e	0.18302652
23	0xbe98c33d	-0.29836455
24	0x3e6e72f4	0.23286039
25	0x3eadee9b	0.33971104
26	0x3ec61db9	0.38694552
27	0xbeafb9c0	-0.34321404
28	0xbe51badf	-0.20481442
29	0x3e9a69b4	0.3015877
30	0xbd6ebc95	-0.058285315
31	0x3df2e603	0.118602775
32	0xbea3f9aa	-0.32026416
33	0x3ea4b8bd	0.32172194
34	0x3f2bbbb7	0.67083305
35	0x3e395aa8	0.18100989
36	0x3bd13435	0.0063843974
37	0x3e1038e0	0.14084196
38	0xbe81cf09	-0.25353268
39	0xbe1f8e1d	-0.15581556
40	0xbd65d21e	-0.056108586
41	0xbe0877c8	-0.13326943
42	0x3ec934dd	0.39298144
43	0xbd4bb043	-0.049728643
44	0xbeb5b78e	-0.35491604
45	0xbe03d7f8	-0.12875354
46	0x3d3cbdea	0.046079554
47	0xbecb82c7	-0.39748213
48	0xbe8c38f6	-0.27387208
49	0xbe5a6e7a	-0.21331206
50	0x3e74db6d	0.2391183
51	0xbc205e51	-0.009788112
52	0xbd9d6a82	-0.076863304
53	0xbda14fc2	-0.07876541
54	0xbd61ba53	-0.055109333
55	0xbc81fe88	-0.01586844
56	0x3e66b31d	0.22529264
57	0x3e48e377	0.19618021
58	0xbdfdb2e1	-0.12387634
59	0xbd6dc711	-0.058051173
60	0xbde4b8d1	-0.111680634
61	0xbed3102c	-0.41223276
62	0xbeadf506	-0.33976
63	0xbee10fa9	-0.4395726
64	0xbe7aea54	-0.24503452
65	0xbd649918	-0.055810064
66	0x3e732719	0.23745383
67	0xbe976e47	-0.29576322
68	0xbcc135de	-0.023585256
69	0x3eb9a7e7	0.36260912
70	0xbdef8254	-0.1169478
71	0xbe9c432b	-0.30519995
72	0x3d642e4a	0.055708207
73	0xbd965270	-0.073399425
74	0xbbf3d70f	-0.0074414085
75	0x3e882996	0.26594228
76	0xbe1213fe	-0.14265439
77	0xbe5581c3	-0.20850281
78	0xbcfce532	-0.030871008
79	0xbe3423d9	-0.175918
80	0xbdd22bad	-0.10262237
81	0xbd825e15	-0.06365601
82	0xbea3433a	-0.31887227
83	0xbd297bdb	-0.041377883
84	0xbd3d711b	-0.046250444
85	0xbdac4bba	-0.08412881
86	0xbe847a19	-0.25874403
87	0xbeb983e6	-0.36233443
88	0xbcc8d874	-0.024517275
89	0xbedc8179	-0.4306753
90	0x3ea80a20	0.32820225
91	0xbeffa5f9	-0.49931315
92	0x3eb1bff4	0.3471676
93	0xbeb1b875	-0.34711042
94	0x3d2ebb1a	0.042658903
95	0x3e380276	0.17969689
96	0xbe7e2c11	-0.24821497
97	0xbcc7017f	-0.024292706
98	0x3e1b2a0c	0.15152758
99	0xbbc15c74	-0.005900914
100	0xbe32dc14	-0.17466766
101	0x3e7d131e	0.24714324
102	0xbe9ccc2b	-0.30624518
103	0xbe580f81	-0.21099664
104	0xbe516575	-0.20448859
105	0x3e7721d2	0.24133995
106	0xbb9f75a8	-0.0048663206
107	0x3dd02e50	0.101650834
108	0xbe7b0d20	-0.24516726
109	0x3ea42ea2	0.32066828
110	0xbce9ce40	-0.02854073
111	0xbed34d1b	-0.41269764
112	0xbe3a0da1	-0.18169262
113	0xbe765657	-0.24056374
114	0xbeee916f	-0.46595332
115	0xbe63cfd3	-0.22247247
116	0x3de10c27	0.10988646
117	0xbbb36217	-0.0054743397
118	0x3c3bd78f	0.011464967
119	0xbdadd891	-0.084885724
120	0x3cb3fe54	0.021971859
121	0x3dc21cb3	0.0947813
122	0x3e68690b	0.2269632
123	0x3e618630	0.22023845
124	0xbdbcbff9	-0.092163034
125	0x3e3ca09f	0.18420647
126	0xbe2f30e4	-0.17108494
127	0xbd4f6f52	-0.050643273
128	0xbd540760	-0.051764846
129	0xbd4312ed	-0.04762547
130	0xbed4a5b1	-0.41532663
131	0xbe92f1e7	-0.28700182
132	0x3e3668ae	0.1781337
133	0xbbb4e4f6	-0.0055204583
134	0x3e8113d3	0.25210437
135	0xbd6a9d74	-0.057279065
136	0xbe8fa092	-0.28052193
137	0x3e30b5d6	0.17256865
138	0xbeb2332b	-0.34804663
139	0x3dc39412	0.095497265
140	0xbcbe8cc7	-0.023260487
141	0xbda0ed0a	-0.078577116
142	0xbe9c6e89	-0.30553082
143	0xbd13005c	-0.035889015
144	0x3e8e91f7	0.27845737
145	0xbe3fb5c3	-0.1872168
146	0xbde99d85	-0.114069976
147	0xbec2fe4c	-0.38084638
148	0xbe94e0c0	-0.2907772
149	0x3e38064e	0.17971155
150	0x3e51ae86	0.20476732
151	0x3ea802b1	0.32814553
152	0x3eed4d62	0.463481
153	0x3dfc93dc	0.123328894
154	0xbdef307b	-0.11679169
155	0x3d600b50	0.05469829
156	0x3efa93e4	0.48940957
157	0xbf0af6da	-0.54282916
158	0x3da6065d	0.081066824
159	0x3ec62234	0.3869797
160	0x3e43e168	0.19128954
161	0xbe4a863d	-0.1977777
162	0x3d11f466	0.035633467
163	0xbd94c4ac	-0.07264075
164	0xbdc7bb38	-0.09752506
165	0x3e466c22	0.19377187
166	0xbe04952a	-0.12947527
167	0xbda55536	-0.08072893
168	0xbeaa77f3	-0.3329464
169	0x3dd8ca7f	0.10585498
170	0xbba0a7e3	-0.004902826
171	0xbed6c21a	-0.41944963
172	0xbdb9cec7	-0.09072643
173	0xbc5c45b8	-0.013444357
174	0xbf0cb682	-0.54965985
175	0x3ea0bd8a	0.31394607
176	0x3cdd71a9	0.027031736
177	0x3e81f684	0.2538339
178	0xbeaa18e7	-0.33222124
179	0xbe31a94a	-0.17349735
180	0xbe4d1928	-0.20029128
181	0x3ed56a0c	0.4168247
182	0xbcd1691d	-0.025562817
183	0xbe162b03	-0.14664845
184	0xbdac4d4e	-0.08413182
185	0x3e5f2b84	0.21793944
186	0x3eadc37a	0.339382
187	0xbe85c148	-0.26124024
188	0xbd98cadb	-0.074605666
189	0xbe85a4b5	-0.26102224
190	0xbdad397f	-0.08458232
191	0x3e965262	0.29359728
192	0x3d0ac68f	0.033880766
193	0x3eef7040	0.46765327
194	0xbd508b7d	-0.050914276
195	0x3e105d24	0.1409803
196	0x3e275125	0.16339548
197	0x3ecf54b6	0.40494317
198	0x3e4ea7ee	0.20181248
199	0x3b1e7c4d	0.0024182976
200	0xbe153415	-0.14570649
201	0x3eb5b053	0.35486087
202	0x3d84981c	0.06474325
203	0xbdb03c3e	-0.0860524
204	0xbce1b7ad	-0.027553404
205	0x3e382d43	0.17986016
206	0x3c598d45	0.01327831
207	0xbef29ede	-0.4738683
208	0xbe3a564e	-0.18196985
209	0x3ed6ff18	0.41991496
210	0x3debb32f	0.11508786
211	0x3e44e69c	0.19228595
212	0xbd8fbacb	-0.0701805
213	0xbe406455	-0.18788274
214	0x3e057cf4	0.13035947
215	0xbeda58a5	-0.42645755
216	0xbf00aec0	-0.5026665
217	0xbe24389d	-0.16037221
218	0xbe35ba28	-0.17746794
219	0xbe071e8c	-0.13195246
220	0xbd5afe7e	-0.05346536
221	0xbdc37557	-0.09543865
222	0xbe641191	-0.22272326
223	0x3db4bbde	0.08824895
224	0xbb7ebc06	-0.0038869395
225	0xbe021d9f	-0.12706612
226	0xbec8117a	-0.39075834
227	0x3eae2895	0.34015337
228	0x3ea05d36	0.31321114
229	0x3e9c3363	0.30507955
230	0x3ecb5cfe	0.39719385
231	0xbea029bf	-0.3128185
232	0x3d3baa65	0.045816798
233	0xbe12bf66	-0.14330825
234	0x3d3638de	0.044487827
235	0x3ddd930d	0.10819063
236	0xbc6c57cf	-0.014425232
237	0xbdfc341f	-0.12314629
238	0x3e2622a5	0.16224153
239	0x3d6db232	0.05803127
240	0x398e8759	0.00027185192
241	0x3d0dd884	0.034630314
242	0xbee4290a	-0.4456256
243	0x3c8e26df	0.01735252
244	0x3eb46b15	0.35237947
245	0xbd428dff	-0.0474987
246	0x3e305432	0.17219618
247	0xbd8228d7	-0.06355446
248	0xbecffc5b	-0.4062222
249	0x3ebe53c9	0.37173298
250	0x3c990baa	0.01868232
251	0xbd23980a	-0.039939918
252	0x3eaa0175	0.33204237
253	0x3e59e569	0.2127892
254	0xbd1bcbe8	-0.038036257
255	0xbdb6428f	-0.08899414

linear2.bias f4 [3]
0	0x3e8f0a93	0.27937755
1	0xbd6af22d	-0.057359863
2	0x3d2034c6	0.03911283
